C:\ProgramData\Anaconda3\envs\torch\python.exe "D:\研究生\经典网络\cbam senet\CBAM.py" 
----------------------------------------------------------------
        Layer (type)               Output Shape         Param #
================================================================
            Conv2d-1           [-1, 16, 26, 26]             160
            Conv2d-2           [-1, 16, 13, 13]           2,320
            Conv2d-3           [-1, 16, 13, 13]           2,320
 AdaptiveAvgPool2d-4             [-1, 16, 1, 1]               0
            Conv2d-5              [-1, 1, 1, 1]              16
              ReLU-6              [-1, 1, 1, 1]               0
            Conv2d-7             [-1, 16, 1, 1]              16
 AdaptiveMaxPool2d-8             [-1, 16, 1, 1]               0
            Conv2d-9              [-1, 1, 1, 1]              16
             ReLU-10              [-1, 1, 1, 1]               0
           Conv2d-11             [-1, 16, 1, 1]              16
          Sigmoid-12             [-1, 16, 1, 1]               0
ChannelAttentionModule-13             [-1, 16, 1, 1]               0
           Conv2d-14            [-1, 1, 13, 13]              99
          Sigmoid-15            [-1, 1, 13, 13]               0
SpatialAttentionModule-16            [-1, 1, 13, 13]               0
             CBAM-17           [-1, 16, 13, 13]               0
    ResidualBlock-18           [-1, 16, 13, 13]               0
           Conv2d-19           [-1, 32, 11, 11]           4,640
           Conv2d-20             [-1, 32, 5, 5]           9,248
           Conv2d-21             [-1, 32, 5, 5]           9,248
AdaptiveAvgPool2d-22             [-1, 32, 1, 1]               0
           Conv2d-23              [-1, 2, 1, 1]              64
             ReLU-24              [-1, 2, 1, 1]               0
           Conv2d-25             [-1, 32, 1, 1]              64
AdaptiveMaxPool2d-26             [-1, 32, 1, 1]               0
           Conv2d-27              [-1, 2, 1, 1]              64
             ReLU-28              [-1, 2, 1, 1]               0
           Conv2d-29             [-1, 32, 1, 1]              64
          Sigmoid-30             [-1, 32, 1, 1]               0
ChannelAttentionModule-31             [-1, 32, 1, 1]               0
           Conv2d-32              [-1, 1, 5, 5]              99
          Sigmoid-33              [-1, 1, 5, 5]               0
SpatialAttentionModule-34              [-1, 1, 5, 5]               0
             CBAM-35             [-1, 32, 5, 5]               0
    ResidualBlock-36             [-1, 32, 5, 5]               0
           Conv2d-37             [-1, 64, 3, 3]          18,496
           Conv2d-38             [-1, 64, 1, 1]          36,928
           Conv2d-39             [-1, 64, 1, 1]          36,928
AdaptiveAvgPool2d-40             [-1, 64, 1, 1]               0
           Conv2d-41              [-1, 4, 1, 1]             256
             ReLU-42              [-1, 4, 1, 1]               0
           Conv2d-43             [-1, 64, 1, 1]             256
AdaptiveMaxPool2d-44             [-1, 64, 1, 1]               0
           Conv2d-45              [-1, 4, 1, 1]             256
             ReLU-46              [-1, 4, 1, 1]               0
           Conv2d-47             [-1, 64, 1, 1]             256
          Sigmoid-48             [-1, 64, 1, 1]               0
ChannelAttentionModule-49             [-1, 64, 1, 1]               0
           Conv2d-50              [-1, 1, 1, 1]              99
          Sigmoid-51              [-1, 1, 1, 1]               0
SpatialAttentionModule-52              [-1, 1, 1, 1]               0
             CBAM-53             [-1, 64, 1, 1]               0
    ResidualBlock-54             [-1, 64, 1, 1]               0
           Linear-55                   [-1, 10]             650
================================================================
Total params: 122,579
Trainable params: 122,579
Non-trainable params: 0
----------------------------------------------------------------
Input size (MB): 0.00
Forward/backward pass size (MB): 0.24
Params size (MB): 0.47
Estimated Total Size (MB): 0.71
----------------------------------------------------------------
[1/20] Train Loss: 0.3027, Train Acc: 0.9018
…
