C:\ProgramData\Anaconda3\envs\torch\python.exe "D:\研究生\经典网络\cbam senet\CBAM.py" 
----------------------------------------------------------------
        Layer (type)               Output Shape         Param #
================================================================
            Conv2d-1           [-1, 16, 26, 26]             160
            Conv2d-2           [-1, 16, 13, 13]           2,320
            Conv2d-3           [-1, 16, 13, 13]           2,320
     ResidualBlock-4           [-1, 16, 13, 13]               0
            Conv2d-5           [-1, 32, 11, 11]           4,640
            Conv2d-6             [-1, 32, 5, 5]           9,248
            Conv2d-7             [-1, 32, 5, 5]           9,248
     ResidualBlock-8             [-1, 32, 5, 5]               0
            Conv2d-9             [-1, 64, 3, 3]          18,496
           Conv2d-10             [-1, 64, 1, 1]          36,928
           Conv2d-11             [-1, 64, 1, 1]          36,928
    ResidualBlock-12             [-1, 64, 1, 1]               0
           Linear-13                   [-1, 10]             650
================================================================
Total params: 120,938
Trainable params: 120,938
Non-trainable params: 0
----------------------------------------------------------------
Input size (MB): 0.00
Forward/backward pass size (MB): 0.20
Params size (MB): 0.46
Estimated Total Size (MB): 0.66
----------------------------------------------------------------
[1/20] Train Loss: 0.2621, Train Acc: 0.9136
…
