C:\ProgramData\Anaconda3\envs\torch\python.exe D:\研究生\经典网络\GoogleNet\goole.py 
----------------------------------------------------------------
        Layer (type)               Output Shape         Param #
================================================================
            Conv2d-1           [-1, 10, 24, 24]             260
         MaxPool2d-2           [-1, 10, 12, 12]               0
         AvgPool2d-3           [-1, 10, 12, 12]               0
            Conv2d-4           [-1, 24, 12, 12]             264
            Conv2d-5           [-1, 16, 12, 12]             176
            Conv2d-6           [-1, 16, 12, 12]             176
            Conv2d-7           [-1, 24, 12, 12]           9,624
            Conv2d-8           [-1, 16, 12, 12]             176
            Conv2d-9           [-1, 23, 12, 12]           3,335
           Conv2d-10           [-1, 24, 12, 12]           4,992
  InceptionModule-11           [-1, 88, 12, 12]               0
           Conv2d-12             [-1, 20, 8, 8]          44,020
        MaxPool2d-13             [-1, 20, 4, 4]               0
        AvgPool2d-14             [-1, 20, 4, 4]               0
           Conv2d-15             [-1, 24, 4, 4]             504
           Conv2d-16             [-1, 16, 4, 4]             336
           Conv2d-17             [-1, 16, 4, 4]             336
           Conv2d-18             [-1, 24, 4, 4]           9,624
           Conv2d-19             [-1, 16, 4, 4]             336
           Conv2d-20             [-1, 23, 4, 4]           3,335
           Conv2d-21             [-1, 24, 4, 4]           4,992
  InceptionModule-22             [-1, 88, 4, 4]               0
           Linear-23                   [-1, 10]          14,090
================================================================
Total params: 96,576
Trainable params: 96,576
Non-trainable params: 0
----------------------------------------------------------------
Input size (MB): 0.00
Forward/backward pass size (MB): 0.36
Params size (MB): 0.37
Estimated Total Size (MB): 0.73
----------------------------------------------------------------
[1/20] Train Loss: 0.1971, Train Acc: 0.9363
…
