…
100%|██████████| 1648877/1648877 [00:00<00:00, 28362415.50it/s]Extracting ./data/MNIST/raw/t10k-images-idx3-ubyte.gz to ./data/MNIST/raw


Downloading http://yann.lecun.com/exdb/mnist/t10k-labels-idx1-ubyte.gz
Downloading http://yann.lecun.com/exdb/mnist/t10k-labels-idx1-ubyte.gz to ./data/MNIST/raw/t10k-labels-idx1-ubyte.gz
100%|██████████| 4542/4542 [00:00<00:00, 21648328.15it/s]
Extracting ./data/MNIST/raw/t10k-labels-idx1-ubyte.gz to ./data/MNIST/raw

----------------------------------------------------------------
        Layer (type)               Output Shape         Param #
================================================================
            Conv2d-1           [-1, 64, 64, 64]             640
            Conv2d-2           [-1, 64, 64, 64]          36,928
         MaxPool2d-3           [-1, 64, 32, 32]               0
              ReLU-4           [-1, 64, 32, 32]               0
            Conv2d-5          [-1, 128, 32, 32]          73,856
            Conv2d-6          [-1, 128, 32, 32]         147,584
         MaxPool2d-7          [-1, 128, 16, 16]               0
              ReLU-8          [-1, 128, 16, 16]               0
            Conv2d-9          [-1, 256, 16, 16]         295,168
           Conv2d-10          [-1, 256, 16, 16]         590,080
           Conv2d-11          [-1, 256, 16, 16]         590,080
        MaxPool2d-12            [-1, 256, 8, 8]               0
             ReLU-13            [-1, 256, 8, 8]               0
           Conv2d-14            [-1, 512, 8, 8]       1,180,160
           Conv2d-15            [-1, 512, 8, 8]       2,359,808
           Conv2d-16            [-1, 512, 8, 8]       2,359,808
        MaxPool2d-17            [-1, 512, 4, 4]               0
             ReLU-18            [-1, 512, 4, 4]               0
           Conv2d-19            [-1, 512, 4, 4]       2,359,808
           Conv2d-20            [-1, 512, 4, 4]       2,359,808
           Conv2d-21            [-1, 512, 4, 4]       2,359,808
        MaxPool2d-22            [-1, 512, 2, 2]               0
             ReLU-23            [-1, 512, 2, 2]               0
           Linear-24                 [-1, 1024]       2,098,176
             ReLU-25                 [-1, 1024]               0
           Linear-26                  [-1, 512]         524,800
             ReLU-27                  [-1, 512]               0
           Linear-28                   [-1, 10]           5,130
================================================================
Total params: 17,341,642
Trainable params: 17,341,642
Non-trainable params: 0
----------------------------------------------------------------
Input size (MB): 0.02
Forward/backward pass size (MB): 10.37
Params size (MB): 66.15
Estimated Total Size (MB): 76.54
----------------------------------------------------------------
…
