----------------------------------------------------------------
        Layer (type)               Output Shape         Param #
================================================================
            Conv2d-1           [-1, 64, 64, 64]             640
            Conv2d-2           [-1, 64, 64, 64]          36,928
         MaxPool2d-3           [-1, 64, 32, 32]               0
              ReLU-4           [-1, 64, 32, 32]               0
            Conv2d-5          [-1, 128, 32, 32]          73,856
            Conv2d-6          [-1, 128, 32, 32]         147,584
         MaxPool2d-7          [-1, 128, 16, 16]               0
              ReLU-8          [-1, 128, 16, 16]               0
            Conv2d-9          [-1, 256, 16, 16]         295,168
           Conv2d-10          [-1, 256, 16, 16]         590,080
           Conv2d-11          [-1, 256, 16, 16]         590,080
           Conv2d-12          [-1, 256, 16, 16]         590,080
        MaxPool2d-13            [-1, 256, 8, 8]               0
             ReLU-14            [-1, 256, 8, 8]               0
           Conv2d-15            [-1, 512, 8, 8]       1,180,160
           Conv2d-16            [-1, 512, 8, 8]       2,359,808
           Conv2d-17            [-1, 512, 8, 8]       2,359,808
           Conv2d-18            [-1, 512, 8, 8]       2,359,808
        MaxPool2d-19            [-1, 512, 4, 4]               0
             ReLU-20            [-1, 512, 4, 4]               0
           Conv2d-21            [-1, 512, 4, 4]       2,359,808
           Conv2d-22            [-1, 512, 4, 4]       2,359,808
           Conv2d-23            [-1, 512, 4, 4]       2,359,808
           Conv2d-24            [-1, 512, 4, 4]       2,359,808
        MaxPool2d-25            [-1, 512, 2, 2]               0
             ReLU-26            [-1, 512, 2, 2]               0
           Linear-27                 [-1, 1024]       2,098,176
             ReLU-28                 [-1, 1024]               0
           Linear-29                  [-1, 512]         524,800
             ReLU-30                  [-1, 512]               0
           Linear-31                   [-1, 10]           5,130
================================================================
Total params: 22,651,338
Trainable params: 22,651,338
Non-trainable params: 0
----------------------------------------------------------------
Input size (MB): 0.02
Forward/backward pass size (MB): 11.18
Params size (MB): 86.41
Estimated Total Size (MB): 97.60
----------------------------------------------------------------
…
