----------------------------------------------------------------
        Layer (type)               Output Shape         Param #
================================================================
            Conv2d-1           [-1, 16, 24, 24]             416
            Conv2d-2           [-1, 16, 12, 12]           2,320
            Conv2d-3           [-1, 16, 12, 12]           2,320
     ResidualBlock-4           [-1, 16, 12, 12]               0
            Conv2d-5             [-1, 32, 8, 8]          12,832
            Conv2d-6             [-1, 32, 4, 4]           9,248
            Conv2d-7             [-1, 32, 4, 4]           9,248
     ResidualBlock-8             [-1, 32, 4, 4]               0
            Linear-9                   [-1, 10]           5,130
================================================================
Total params: 41,514
Trainable params: 41,514
Non-trainable params: 0
----------------------------------------------------------------
Input size (MB): 0.00
Forward/backward pass size (MB): 0.15
Params size (MB): 0.16
Estimated Total Size (MB): 0.31
----------------------------------------------------------------
[1/20] Train Loss: 0.1341, Train Acc: 0.9584
…
